…
lizer='he_normal'),\n","  keras.layers.BatchNormalization(),\n","  keras.layers.Dense(100, activation='elu', kernel_initializer='he_normal'),\n","  keras.layers.BatchNormalization(),\n","  keras.layers.Dense(10, activation='softmax')\n","])\n","\n","model.summary()"],"execution_count":null,"outputs":[{"output_type":"stream","text":["Model: \"sequential\"\n","_________________________________________________________________\n","Layer (type)                 Output Shape              Param #   \n","=================================================================\n","flatten (Flatten)            (None, 784)               0         \n","_________________________________________________________________\n","batch_normalization (BatchNo (None, 784)               3136      \n","_________________________________________________________________\n","dense_1 (Dense)              (None, 300)               235500    \n","_________________________________________________________________\n","batch_normalization_1 (Batch (None, 300)               1200      \n","_________________________________________________________________\n","dense_2 (Dense)              (None, 100)               30100     \n","_________________________________________________________________\n","batch_normalization_2 (Batch (None, 100)               400       \n","_________________________________________________________________\n","dense_3 (Dense)              (None, 10)                1010      \n","=================================================================\n","Total params: 271,346\n","Trainable params: 268,978\n","Non-trainable params: 2,368\n","_________________________________________________________________\n"],"name":"stdout"}]},{"cell_type":"markdown","metadata":{"id":"c2MWlmIoomY5"},"source":["BN adds 4 parameters per input ($\\gamma, \\beta, \\mu, \\sigma$)"]},{"cel
…
